_________________________________________________________________
Layer (type)                 Output Shape              Param #
=================================================================
input_1 (InputLayer)         [(None, 56, 56, 3)]       0
_________________________________________________________________
conv2d (Conv2D)              (None, 56, 56, 64)        4864
_________________________________________________________________
conv2d_1 (Conv2D)            (None, 56, 56, 64)        36928
_________________________________________________________________
conv2d_2 (Conv2D)            (None, 56, 56, 32)        18464
_________________________________________________________________
conv2d_3 (Conv2D)            (None, 56, 56, 48)        13872
_________________________________________________________________
tf.nn.depth_to_space (TFOpLa (None, 224, 224, 3)       0
=================================================================
Total params: 74,128
Trainable params: 74,128
Non-trainable params: 0
_________________________________________________________________
2021-04-21 20:55:23.768820: I tensorflow/compiler/mlir/mlir_graph_optimization_pass.cc:116] None of the MLIR optimization passes are enabled (registered 2)
Epoch 1/60
4140/4140 - 446s - loss: 0.0020
…
